rea-pytorch-BYOD/aws-PyTorch-SM/data/model/model.pth (torch, 644289 bytes, 2 tensors)

center_embeddings.weight f4 [628, 128]
-0.011058002 -0.20283061 0.20950586 0.009470753 0.2661169 0.19174145 0.094972655 0.0040200055
0.15378761 0.20171234 0.10175599 -0.02633057 -0.15680824 0.11898679 0.09969358 0.14136982
0.21330446 -0.27121848 0.02422104 0.32313612 -0.1808635 0.034775887 0.12566632 0.1954305
-0.20343447 -0.05355119 0.074688755 0.33540842 0.15385337 0.021153701 0.24797748 0.35624063
-0.55710584 0.303322 -0.16159016 -0.43898407 -0.18734632 0.32739705 -0.03496327 -0.34715065
-0.07288144 0.047552336 -0.04875132 -0.41331965 0.0608386 -0.2815887 0.040254723 0.2777528
0.20001766 -0.19518419 0.07683901 0.22443835 0.1973182 0.10530917 0.3747761 0.23647566
-0.024265723 0.25501913 -0.22889134 -0.019452123 0.2299446 -0.13772036 -0.118537225 -0.5881645
-0.14460503 -0.31172618 -0.04725215 0.15375 0.3442942 0.09763119 -0.36996332 -0.05067582
-0.041283485 -0.07484635 -0.27134827 0.36042246 0.3714733 -0.0018398258 0.039116636 -0.08095673
0.20553435 0.16819894 -0.08164935 -0.16730632 -0.23283046 -0.03460112 -0.0025048011 0.25390762
-0.33768624 0.10863028 -0.3289717 -0.09892852 -0.08185414 -0.090827584 0.14920692 -0.13050628
0.30165684 -0.15723439 -0.1596557 -0.091342054 -0.016603718 -0.09750148 0.01883781 0.24003147
0.40785918 0.045560718 -0.05006675 0.27508163 0.22500265 0.15929665 0.18320043 0.03001733
0.09991286 0.47023496 -0.24570145 -0.10236162 0.08479582 0.53805643 0.031730693 -0.19580424
0.52472115 -0.15692501 0.034361318 0.119302474 -0.5036964 0.26305342 0.5974699 -0.01595464
0.08708137 0.17423613 -0.12628299 -0.13017818 -0.1671202 -0.042684294 0.005799413 -0.47907594
0.007565148 0.053798385 0.13333325 -0.07129151 -0.34198493 -0.021094419 0.03249566 0.21511398
0.2344088 -0.114936575 -0.09515988 0.034905333 0.0023037957 0.12458184 -0.06437117 0.008733527
-0.1503185 -0.010997325 0.2319289 0.08310608 0.0022053053 0.022195501 0.27459037 0.12618238
-0.27170727 0.0009798094 -0.099437736 -0.20689829 -0.15583712 0.027812595 0.19714606 0.01595457
0.32405427 -0.04109064 -0.025138358 -0.21741171 -0.05387106 0.13846488 -0.032007847 -0.003924298
-0.49392483 -0.26711047 -0.28942248 0.2138568 -0.0058602267 0.16649204 -0.5277199 0.034931097
-0.09956687 0.4333651 -0.1257599 -0.06380408 0.10481821 0.093176804 0.044849254 -0.116438106
0.008437662 -0.08115616 -0.0021501686 -0.28238836 0.10069399 0.15367006 -0.06096139 -0.18458925
-0.017636336 -0.063191704 -0.22807142 0.027125034 -0.19890966 0.04970843 -0.0022162995 0.081612766
0.14865972 0.21747765 0.15087983 0.34572902 -0.17900035 -0.06579175 -0.27134103 0.13622269
-0.1903208 0.05966605 -0.066097125 0.51482165 0.38438416 -0.2318408 0.16674851 -0.054571357
0.023741892 0.21559854 -0.019297097 -0.09129445 -0.05453479 -0.0858781 -0.04683427 0.066864476
0.25512034 -0.1330239 0.08549773 0.49049607 0.10669779 0.082265675 0.0901581 -0.26889676
0.08200758 0.3622639 -0.010285366 -0.31178775 -0.11115107 0.14540897 0.092245996 -0.4317038
-0.019185677 0.1068529 -0.044440698 0.18296856 -0.5701158 -0.09264083 0.32492173 -0.00088146736
00000000: 9f2c 35bc d4b2 4fbe b488 563e 382b 1b3c
00000010: 7940 883e df57 443e 0681 c23d 40ba 833b
00000020: 807a 1d3e ae8d 4e3e 7265 d03d 35b3 d7bc
00000030: 5792 20be 59af f33d 262c cc3d 40c3 103e
00000040: 7c6c 5a3e 26dd 8abe 346b c63c 1972 a53e
00000050: 4834 39be 2971 0e3d acae 003e ef1e 483e
00000060: 2051 50be 7e58 5bbd 6bf6 983d a7ba ab3e
00000070: bd8b 1d3e 874a ad3c cfed 7d3e 2c65 b63e
00000080: 7d9e 0ebf 054d 9b3e e477 25be 85c2 e0be
00000090: b7d7 3fbe 96a0 a73e a535 0fbd bbbd b1be
000000a0: dd42 95bd 3dc6 423d 77af 47bd a29e d3be
000000b0: e531 793d 652c 90be 23e2 243d 9d35 8e3e
000000c0: 6ed1 4c3e 5dde 47be c55d 9d3d 2bd3 653e
000000d0: c80d 4a3e 56ac d73d a7e2 bf3e ad26 723e
000000e0: e9c8 c6bc de91 823e 7e62 6abe 0f5a 9fbc
000000f0: 9976 6b3e 9106 0dbe a5c3 f2bd f391 16bf
00000100: 5713 14be 939a 9fbe 788b 41bd a470 1d3e
00000110: 5447 b03e ddf2 c73d d56b bdbe 7391 4fbd
00000120: df18 29bd 0b49 99bd 29ee 8abe 4b89 b83e
00000130: c031 be3e 4f26 f1ba c438 203d a4cc a5bd
00000140: 9977 523e 583c 2c3e c637 a7bd 5952 2bbe
00000150: 1c6b 6ebe e7b9 0dbd 9727 24bb 2e00 823e
00000160: 36e5 acbe 8d79 de3d fb6e a8be 099b cabd
00000170: 25a3 a7bd d003 babd b3c9 183e 70a3 05be
00000180: c472 9a3e 0d02 21be c97c 23be 8b11 bbbd
00000190: 8504 88bc dbae c7bd c051 9a3c cfca 753e
000001a0: ebd2 d03e e09d 3a3d cb12 4dbd 80d7 8c3e
000001b0: 1867 663e a91e 233e e598 3b3e e7e6 f53c
000001c0: 1d9f cc3d a3c2 f03e 2999 7bbe f8a2 d1bd
000001d0: 6ea9 ad3d 11be 093f 0bf8 013d e880 48be
000001e0: 2054 063f f3b0 20be 74be 0c3d db54 f43d
000001f0: 3ff2 00bf f0ae 863e caf3 183f 4eb3 82bc
00000200: b857 b23d f56a 323e 5450 01be 6e4d 05be
00000210: 8f21 2bbe bad5 2ebd 0109 be3b 7149 f5be
00000220: 10e5 f73b b25b 5c3d 8388 083e 4801 92bd
00000230: a618 afbe 34ce acbc 2b1a 053d d746 5c3e
00000240: dc08 703e de63 ebbd 2fe3 c2bd e5f8 0e3d
00000250: 47fb 163b c424 ff3d 08d5 83bd 1117 0f3c
00000260: 18ed 19be 202e 34bc c57e 6d3e 8533 aa3d
00000270: e286 103b 57d3 b53c 1c97 8c3e f435 013e
00000280: 371d 8bbe f36c 803a 03a6 cbbd 25dd 53be
00000290: c493 1fbe 3dd7 e33c a8e0 493e 29b3 823c
000002a0: 71ea a53e a94e 28bd f5ee cdbc 2da1 5ebe
000002b0: e7a7 5cbd bdc9 0d3e a91a 03bd 6697 80bb
000002c0: b7e3 fcbe b4c2 88be 2f2f 94be 47fd 5a3e
000002d0: 2507 c0bb e47c 2a3e a718 07bf e913 0f3d
000002e0: b7e9 cbbd 08e2 dd3e 34c7 00be b7ab 82bd
000002f0: eeaa d63d 7bd3 be3d dab3 373d 1a77 eebd
00000300: 1f3e 0a3c 3335 a6bd d8e9 0cbb 3595 90be
00000310: a738 ce3d af5b 1d3e a7b2 79bd f704 3dbe
00000320: 147a 90bc a76a 81bd 8e8b 69be 5235 de3c
00000330: f9ae 4bbe 119b 4b3d 563f 11bb 9824 a73d
00000340: 413a 183e 76b2 5e3e 3e80 1a3e 6503 b13e
00000350: de4b 37be d3bd 86bd 36ed 8abe f67d 0b3e
00000360: 75e3 42be 6364 743d ee5d 87bd 5acb 033f
00000370: 00ce c43e ad67 6dbe 1fc0 2a3e 3786 5fbd
00000380: 5b7e c23c ddc5 5c3e f214 9ebc 96f8 babd
00000390: df5f 5fbd dbe0 afbd 4bd5 3fbd 3ef0 883d
000003a0: 229f 823e 6b37 08be 6f19 af3d 4d22 fb3e
000003b0: 5f84 da3d e87a a83d cfa4 b83d d6ac 89be
000003c0: 97f3 a73d a77a b93e f483 28bc a5a2 9fbe
000003d0: 2ca3 e3bd 17e6 143e 78eb bc3d 4808 ddbe
000003e0: 482b 9dbc b1d5 da3d 7307 36bd 1c5c 3b3e
000003f0: 1cf3 11bf 7aba bdbd 245c a63e 4612 67ba

context_embeddings.weight f4 [628, 128]
0.0861622 -0.56962264 -0.3079487 0.124152854 0.75147384 -0.13822177 -0.0630719 -0.15387507
-0.24799173 -0.27648586 -0.26555648 0.46038422 0.09400842 -0.14896722 -0.057692613 0.89014417
0.65061283 0.040093977 -0.29291162 -0.29158348 -0.61519194 -0.36661983 -0.26853108 -0.35275674
0.23922417 -0.23006889 -0.12169935 -0.17077592 0.48421744 -0.18824138 -0.37508664 0.5199854
0.55060035 0.155352 0.66839117 -0.31781146 -0.038495492 0.5811731 -0.098399565 0.45200747
-0.99936265 0.11077191 0.31353042 0.00010836112 0.37549874 -0.56992507 -0.18163428 0.3342221
0.22126922 -0.07864314 0.4644883 -0.4194437 -0.007046886 -0.41578954 0.41685617 -0.17836978
-0.062466625 -0.7782269 0.21273975 0.28555647 0.13054672 0.25649908 0.3881252 0.54257977
-0.58666545 0.5188929 -0.13675915 0.440591 0.8792039 -0.09922796 -0.02595623 -0.0033223815
-0.34374887 0.4964788 -0.08261176 0.48358175 -0.24211214 -0.15460561 -0.020827962 0.01720026
-0.33108592 -0.30979526 -0.40215674 -0.42080143 0.19113825 0.27829316 -0.14461286 -0.22077638
-0.9652598 0.3060919 0.6358313 -0.5078242 -0.11095484 -0.1989871 0.42918596 0.13898554
0.46014294 -0.3385851 0.094793946 -0.2821611 -0.29593492 -0.24354583 -0.4161686 0.12772167
-0.5371425 0.1288483 -0.12885398 0.98611975 -0.21954104 -0.27768087 -0.0013120825 0.22939949
0.022999004 -0.13677512 0.46023703 0.053688087 -0.6071871 0.649974 0.014808404 0.49054378
-0.5601864 0.000115984505 0.31814823 -0.489581 0.47630525 -0.13815628 0.09498194 0.0965552
0.1216866 0.27746135 -0.6047462 0.5493959 -0.00058292475 0.08867474 -0.18994308 -1.1791666
-0.049808852 -0.15343934 -0.37911457 0.25343508 0.2403716 0.057681058 -0.46649563 0.5391007
0.51411325 0.16838372 -0.20855033 -0.0061571742 -0.6554657 -0.5804707 -0.65161973 -0.36382172
0.07961713 -0.61975676 0.13292484 0.37966296 0.12162314 0.35232997 -0.06863911 -0.26556456
0.33852303 -0.08352479 -0.025129853 0.0062348265 0.32608348 -0.18147488 0.71809375 0.21570352
-0.7318746 -0.1687477 0.49738565 0.24351597 0.07973567 -0.48023254 -0.18499018 -0.47504672
-0.1055041 -0.02686949 0.19319537 -0.32685763 -0.2550311 -0.19431065 -0.014634161 -0.27935535
-0.10422623 0.19272378 0.46951905 -0.04070505 -0.2135618 0.046279673 0.4045426 -0.027052766
-0.76667786 0.21548636 0.20211513 0.3818516 0.19707258 0.04252853 0.51080877 -0.21008043
0.076106906 0.23376209 0.13186185 -0.08128059 -0.37725285 -0.12990835 -0.10891103 -0.2832415
-0.48961464 -0.20425822 -0.15041713 -0.029183622 0.60887706 0.3652064 -0.286937 -0.7543807
-0.65884554 -0.3164386 0.814185 -0.082961656 0.25577864 -0.019731726 0.07700301 0.122419804
0.39662254 -0.117371425 0.1743495 0.35762066 0.021541588 -0.8770584 -0.66128206 -0.35559636
-0.23459609 0.44061098 0.010310922 0.48072192 0.10617718 -0.025192576 -0.028536797 0.07790341
-0.20163329 -0.16231413 -0.014536362 0.40545425 -0.7773528 0.4228965 -0.077045985 -0.14525072
0.24052373 -0.11396579 0.5784489 -0.07132974 0.19189967 0.12443643 -0.27006844 0.32510903
00000000: cf75 b03d cad2 11bf 74ab 9dbe da43 fe3d
00000010: 9760 403f 028a 0dbe d72b 81bd 6d91 1dbe
00000020: 8bf1 7dbe 8e8f 8dbe 05f7 87be 7bb7 eb3e
00000030: 7d87 c03d dd8a 18be 174f 6cbd 7de0 633f
00000040: 908e 263f 9539 243d 83f8 95be 6e4a 95be
00000050: 387d 1dbf 98b5 bbbe e87c 89be 889c b4be
00000060: 2ef7 743e 2e97 6bbe 823d f9bd e2df 2ebe
00000070: 59eb f73e 59c2 40be 5b0b c0be c31d 053f
00000080: 25f4 0c3f 9814 1f3e af1b 2b3f 2fb8 a2be
00000090: 73ad 1dbd c3c7 143f b685 c9bd 866d e73e
000000a0: 3bd6 7fbf 62dc e23d 0f87 a03e ef3f e338
000000b0: 5f41 c03e 9ce6 11bf 56fe 39be 291f ab3e
000000c0: 6694 623e a80f a1bd 69d1 ed3e 53c1 d6be
000000d0: 90e9 e6bb 5ee2 d4be 2c6e d53e 91a6 36be
000000e0: 01dd 7fbd e139 47bf 73d8 593e 7534 923e
000000f0: 0aae 053e d953 833e 59b8 c63e 82e6 0a3f
00000100: b52f 16bf 2ad6 043f 970a 0cbe 2595 e13e
00000110: 8213 613f 0738 cbbd 29a2 d4bc 50bc 59bb
00000120: daff afbe 7832 fe3e 5b30 a9bd 0798 f73e
00000130: 3fec 77be ef50 1ebe 679f aabc 8fe7 8c3c
00000140: 1884 a9be 7c9d 9ebe 7de7 cdbe 4973 d7be
00000150: bfb9 433e 717c 8e3e 6515 14be 3413 62be
00000160: 441b 77bf 14b8 9c3e d7c5 223f c400 02bf
00000170: 4b3c e3bd 46c3 4bbe 43be db3e 3a52 0e3e
00000180: db97 eb3e 075b adbe 5423 c23d 6b77 90be
00000190: c884 97be 1464 79be 0d14 d5be 78c9 023e
000001a0: 2c82 09bf cff0 033e 4cf2 03be 5872 7c3f
000001b0: 5ecf 60be 302c 8ebe 2ffa abba b3e7 6a3e
000001c0: 6868 bc3c c70e 0cbe 30a4 eb3e 0ae8 5b3d
000001d0: 9d70 1bbf b264 263f f39e 723c 8e28 fb3e
000001e0: 6068 0fbf b53c f338 53e4 a23e 5caa fabe
000001f0: 48de f33e d778 0dbe e485 c23d bcbe c53d
00000200: d336 f93d 6a0f 8e3e a6d0 1abf 36a5 0c3f
00000210: 6bcf 18ba 1a9b b53d 7080 42be eeee 96bf
00000220: 5e04 4cbd 341f 1dbe 4e1b c2be 3ec2 813e
00000230: f923 763e f942 6c3d 84d8 eebe 8102 0a3f
00000240: ed9c 033f c86c 2c3e 388e 55be 1fc2 c9bb
00000250: 9acc 27bf ba99 14bf 8dd0 26bf d746 babe
00000260: 4e0e a33d 61a8 1ebf 731d 083e 2f63 c23e
00000270: 8e15 f93d 9864 b43e a992 8cbd 14f8 87be
00000280: e452 ad3e 0c0f abbd 1fdd cdbc 844d cc3b
00000290: 6af4 a63e 8dd4 39be fed4 373f 62e1 5c3e
000002a0: 225c 3bbf 32cc 2cbe 55a9 fe3e 405c 793e
000002b0: 744c a33d 0ae1 f5be 116e 3dbe 5339 f3be
000002c0: 8912 d8bd 681d dcbc 02d5 453e e259 a7be
000002d0: 7093 82be 5ff9 46be 1fc4 6fbc aa07 8fbe
000002e0: 9074 d5bd 6259 453e cd64 f03e 57ba 26bd
000002f0: f2af 5abe c18f 3d3d 3520 cf3e c39d ddbc
00000300: 0045 44bf 75a8 5c3e 45f7 4e3e 0e82 c33e
00000310: 65cd 493e 6532 2e3d 5dc4 023f 531f 57be
00000320: f0dd 9b3d 545f 6f3e cb06 073e 7076 a6bd
00000330: 4927 c1be b206 05be bf0c dfbd 0805 91be
00000340: c5ae fabe 1129 51be f306 1abe 7e12 efbc
00000350: 5edf 1b3f 55fc ba3e 68e9 92be 181f 41bf
00000360: 1aaa 28bf 3d04 a2be 6e6e 503f cde7 a9bd
00000370: 6bf5 823e 6ea4 a1bc c1b3 9d3d 3cb7 fa3d
00000380: 1c12 cb3e 6e60 f0bd ad88 323e 0e1a b73e
00000390: fc77 b03c e686 60bf c849 29bf ba10 b6be
000003a0: f539 70be c397 e13e 24ef 283c 2f21 f63e
000003b0: 6c73 d93d a960 cebc 00c6 e9bc d38b 9f3d
000003c0: f578 4ebe ad35 26be ec29 6ebc b397 cf3e
000003d0: 9800 47bf e485 d83e 49ca 9dbd 9bbc 14be
000003e0: da4b 763e e566 e9bd 3a15 143f 5415 92bd
000003f0: 5981 443e 87d8 fe3d 6946 8abe b174 a63e
